Comparison/Yang1997/models/independent_ppo/ppo_critic.pth (torch, 45734 bytes, 5 tensors)

fc.0.weight f4 [128, 18]
000000 94 61 70 3c f6 d6 2b b9 31 cd 3b bd db 5e a1 bb
       0.014671702 -0.0001638791 -0.045849983 -0.0049246377
000010 c7 a4 fa 3c be b1 30 bd 63 89 1f bd 1b f7 7c bb
       0.03059615 -0.04313826 -0.03894938 -0.0038599435
000020 19 7a 82 3c a8 18 99 bc 28 12 78 bc 34 e8 90 bc
       0.015927361 -0.018688515 -0.015141048 -0.017688848
000030 9b 64 96 3c 2d e2 19 bd e2 2e 0c 3c be f8 2f 3c
       0.01835852 -0.037569214 0.0085561 0.010740457
000040 58 ee ac bc 27 af 4a 3c c0 6c 86 3b 71 85 68 3c
       -0.021109745 0.012370861 0.0041023195 0.014191971
000050 67 6a 00 bb 67 a6 3a 3d cf 1a ba bc 82 6f 25 3c
       -0.001959467 0.04556885 -0.022717861 0.010097386
000060 82 c1 46 3c 70 db 96 3b 94 f8 9d bc 4d cd 11 bc
       0.012131097 0.0046037957 -0.01928357 -0.008899045
000070 d8 80 a5 bc 9e a6 b0 3b ae a7 e5 bb a9 6d 66 3c
       -0.020203039 0.005390956 -0.0070085144 0.014064231
000080 2a 89 93 3c 17 f2 06 3c 9c 29 e0 bb a9 73 14 3b
       0.01800974 0.00823643 -0.0068408977 0.0022651947
000090 2c 14 28 bc b1 46 e4 3c fe 4a b7 3b 23 ec 1a 3d
       -0.010258716 0.02786574 0.0055936566 0.037822854
0000a0 d0 9e 81 bb 52 88 64 bc 51 65 ec 3b db 7c 4a 3c
       -0.0039556995 -0.013948517 0.0072142263 0.012358869
0000b0 2e 9c 5e 3c a7 ac b1 3c 3d 97 39 3c ac 8a f9 3c
       0.013587041 0.021688772 0.011327562 0.030461632
0000c0 f0 02 6d 3d b8 aa 23 bc 70 7e af bc 5d 34 93 bb
       0.05786413 -0.009989433 -0.021422595 -0.004492326
0000d0 9d b1 9c 38 ac 27 4f bc 17 23 9a 3b ad fb a0 3c
       7.471743e-05 -0.012643736 0.00470389 0.019651258
0000e0 dc ac 32 bc ed 77 69 3c 8b 90 e6 3c 7b c4 cb bc
       -0.010905471 0.014249784 0.028145095 -0.024873963
0000f0 80 5a 24 3c c0 93 0b 3c 11 81 13 bd f0 3b cf bc
       0.0100313425 0.008519113 -0.03601176 -0.025297135
000100 8f 8e 40 bc 71 46 3b 3c a4 31 39 3c 7b 97 e0 b9
       -0.011752739 0.011430369 0.011303339 -0.0004283747
000110 8d 93 bf 3b 41 e6 3b b9 3f c5 8c bc 5d ef ae 3b
       0.005846447 -0.00017919486 -0.017183898 0.005338593
000120 8a 53 f6 3a 0e 7f 99 bc 71 05 dd 3b ba 0d 11 3d
       0.0018793207 -0.018737342 0.0067450334 0.03541348
000130 6d 2f 7c 3c ef 23 fb bc 8b 1b 03 bd 13 4e 26 bd
       0.015392167 -0.030656783 -0.03200869 -0.0406018
000140 70 43 a2 3a c0 b5 08 bd bb fc d9 bc 6f 83 06 bc
       0.0012379717 -0.033376455 -0.02660977 -0.008210047
000150 dd c3 c7 3c 9e 70 07 bd f5 cd 78 3c 5b d9 8b 3b
       0.024385387 -0.033066384 0.015185823 0.004267854
000160 14 07 98 3b 4b 23 1c bd d9 18 0c bc a8 d2 f6 bb
       0.0046395157 -0.038119595 -0.008550846 -0.0075324364
000170 09 28 03 bd bd 05 78 bb 5b 40 da 3c cd 92 28 bd
       -0.032020602 -0.0037845217 0.026642015 -0.041155625
000180 20 26 42 3c 8f 94 ca b9 2f 07 b5 bc ae 6b d2 bb
       0.01184991 -0.00038639127 -0.022098152 -0.006421528
000190 3c 89 aa bc c8 a3 d0 bb 96 36 a3 3d ea d9 88 bc
       -0.020817392 -0.0063671805 0.07969396 -0.016705472
0001a0 f8 ae 47 3b 97 ab 06 3b 25 88 ca ba 0a ec e7 39
       0.003046928 0.0020549053 -0.0015451951 0.00044235616
0001b0 dc 9e ba 3c dc e1 ce 3b e5 de 14 bc 5f 7c be 3c
       0.022780828 0.0063135456 -0.009086345 0.023252664
0001c0 ca ba ea bb c1 b1 03 3d ba b3 75 bc 69 d1 02 bd
       -0.0071633803 0.03215194 -0.014996463 -0.03193799
0001d0 92 e0 f8 bc a8 88 8e bc b0 e4 de bc 24 af 65 3c
       -0.030380521 -0.017399147 -0.027208656 0.014018808
0001e0 72 e2 99 3c b0 2d 03 bb 44 a1 1c 3d 09 5c f6 bb
       0.018784735 -0.0020016246 0.038239732 -0.0075182957
0001f0 47 5b 86 bc ad 98 8a 3c 0f 0d 70 bb 77 01 dd 3a
       -0.016400946 0.016918505 -0.0036628877 0.0016861398
000200 83 8a 56 3c 12 26 42 3c 25 c0 a4 3c 6e 89 21 bc
       0.013094547 0.011849897 0.020111153 -0.009859426
000210 8a 8b 44 bc 63 83 12 3d 53 5c dc 3c 23 44 e3 bc
       -0.011996159 0.03576983 0.026899492 -0.027742451
000220 9a e2 fe bc f3 40 90 ba 41 e3 e7 b7 74 86 d6 bc
       -0.031113911 -0.0011005685 -2.764317e-05 -0.02618716
000230 57 83 93 3b ed 2e 16 bc ad 8b c6 3c e4 e8 19 3d
       0.004501741 -0.009166461 0.024236524 0.037575617
000240 f2 8f 84 bc 55 fa 06 3d 2b 7c 81 bc 9a 3d 3e 3c
       -0.01618192 0.03295358 -0.015806278 0.011611367
000250 e0 58 1d 3d ee 34 1f bd d1 e6 0f 3c 71 6c ca 3c
       0.038414836 -0.038868837 0.008783058 0.024709912
000260 7a 0d 3f bc d0 83 d8 bb cf 35 4c bc 19 96 0c 3c
       -0.011660928 -0.00660751 -0.012464001 0.008580708
000270 3a a8 4e 3c 1a 0d ad bc 82 04 a7 bc 6e 96 a1 ba
       0.0126133505 -0.021124411 -0.020387892 -0.0012328157
000280 ca b7 04 bd 36 c3 91 3c 9a 49 13 3c 54 27 35 3c
       -0.032401837 0.01779328 0.008989716 0.01105674
000290 d0 ca ab 3c e8 c3 80 3c e6 24 4b 3c 4b 81 b4 bc
       0.020970732 0.015718415 0.012398934 -0.022034308
0002a0 95 fb ab bc 0b 76 5a 3b ec 92 bd bc 84 58 2d bb
       -0.020993987 0.003333452 -0.023141347 -0.0026450465
0002b0 a2 1f 34 bc 9a 07 b1 3c 7f 39 2d 3c b3 3f 4e bc
       -0.01099387 0.02161007 0.01057279 -0.012588429
0002c0 84 85 d1 bc 30 1f 9d 3a 94 b0 c7 3c d8 e3 ba 39
       -0.02557636 0.0011987444 0.024376191 0.0003564644
0002d0 35 32 0d bd 44 c8 88 3b ad 12 9a 3c 44 ce 00 bb
       -0.03447171 0.004174264 0.018807733 -0.0019654194
0002e0 39 99 20 3c fc d2 1f bd 25 00 86 3b 78 25 28 bd
       0.009802156 -0.03901957 0.0040893727 -0.041051358
0002f0 10 be 06 3c b2 4a 8f bc 4e 85 69 3c bc a4 20 3b
       0.008224025 -0.017491672 0.014252974 0.0024512252
000300 0b 52 1f bb 97 6e 1f 3c 3f bd 0a 3d e1 a0 e6 bb
       -0.0024310376 0.0097309565 0.033871885 -0.007038221
000310 3c ab 6d 3c 7b 06 c7 bc 2c 5a b8 bc 6b d5 9a 3c
       0.0145061575 -0.024295082 -0.022503935 0.018900594
000320 3f 85 40 3c e0 be d0 bc 9e bf bb bc 08 fe 27 bc
       0.011750518 -0.025481641 -0.022918519 -0.010253437
000330 e4 4b a5 3c a2 c5 02 3d 6a b6 58 3b 99 4d 1b 3c
       0.020177789 0.03192676 0.0033067712 0.00947895
000340 1f a0 d9 3c af 1f b5 bb 2d bd a5 bc 7d 9d 9a 3c
       0.02656561 -0.0055274586 -0.020231808 0.018873924
000350 6b f7 31 bd 42 ad b6 3c 29 15 0c bd e4 b8 2e 3b
       -0.043448847 0.022299413 -0.034199867 0.0026660496
000360 18 ee bf 3c c0 dc 50 bc f0 24 54 bc 74 f4 ce 3c
       0.023428962 -0.012747943 -0.01294826 0.025263049
000370 2d 78 6c 3d b5 d0 42 bd 40 a9 51 bc d9 ee 89 3c
       0.057731796 -0.04756232 -0.0127967 0.016837524
000380 b9 eb f4 bc 7c 52 8e bc 3d ba 43 bb 75 b8 b0 3b
       -0.029897558 -0.017373316 -0.0029865645 0.0053930827
000390 19 4e 2d 3d f7 ad 98 bb 22 36 32 3c 09 a5 75 bc
       0.042310808 -0.00465941 0.010877164 -0.014992961
0003a0 dc c1 06 3b 42 63 67 bd e8 c7 3d bb c3 5b a9 bc
       0.0020562327 -0.056491144 -0.0028958265 -0.020673638
0003b0 ac de 92 3c 06 63 ac bb 02 3d 89 3c c5 20 fc bc
       0.017928444 -0.005260828 0.016752724 -0.030777344
0003c0 5c 73 52 3c a1 85 96 bc e3 cb c7 bc cb 6d a3 3b
       0.012844887 -0.018374266 -0.024389213 0.0049874536
0003d0 3b 8c 01 3d ce d4 0d 3d d5 c0 ad bb af a7 83 bc
       0.031627875 0.034626774 -0.0053025284 -0.016071169
0003e0 e0 a7 9e 3c 15 93 82 3b 6f 72 15 3d 13 cb 71 bc
       0.019367158 0.0039848187 0.036486086 -0.014757889
0003f0 c1 b1 c7 bb af c1 2d 3b a6 8b b4 bc 3b c3 b5 3b
       -0.006094188 0.002651315 -0.022039246 0.005546955

fc.0.bias f4 [128]
000000 23 31 83 3f fc a1 84 3f b6 f1 7d 3f a6 3d 83 3f
       1.024937 1.0361934 0.99196947 1.0253189
000010 fe bf 78 3f c4 4d 84 3f ef 88 7c 3f 4a 6a 80 3f
       0.97167957 1.0336232 0.98646444 1.0032437
000020 ff 27 81 3f 45 b2 81 3f db f4 7d 3f 29 ca 78 3f
       1.0090331 1.0132529 0.99201745 0.9718347
000030 e1 20 82 3f be 57 81 3f 77 21 83 3f 50 ab 83 3f
       1.0166284 1.0104902 1.0244588 1.0286655
000040 65 e7 78 3f af 23 83 3f dd ea 7f 3f 4f 55 7f 3f
       0.9722808 1.0245265 0.9996775 0.99739546
000050 03 14 7e 3f 17 b6 7b 3f 1a fa 81 3f 57 77 77 3f
       0.99249285 0.9832472 1.015445 0.96666473
000060 86 93 80 3f e4 10 84 3f 35 47 84 3f 3e 38 82 3f
       1.004502 1.0317655 1.0334231 1.0173414
000070 00 cc 7f 3f 72 7e 81 3f 8c 51 7f 3f d9 34 76 3f
       0.99920654 1.0116713 0.99733806 0.9617439
000080 47 7c 82 3f 4c 10 82 3f d4 d8 7d 3f 54 32 80 3f
       1.0194176 1.0161223 0.9915898 1.0015359
000090 d3 80 7e 3f cf 7f 86 3f e6 f6 80 3f 45 fa 81 3f
       0.9941532 1.0507754 1.0075347 1.0154501
0000a0 ea 9e 81 3f 17 16 7d 3f ef d0 84 3f 26 08 7f 3f
       1.0126622 0.9886183 1.0376261 0.9962181
0000b0 0a ce 84 3f 3d 81 71 3f 0a 34 81 3f a5 e0 83 3f
       1.0375378 0.94337827 1.0094006 1.0302931
0000c0 bf 69 79 3f 4b 34 7c 3f a7 9a 81 3f 31 38 82 3f
       0.9742698 0.9851729 1.0125321 1.0173398
0000d0 22 1b 78 3f bd 9a 83 3f 85 35 81 3f 82 2c 86 3f
       0.969164 1.0281597 1.0094458 1.0482333
0000e0 b7 1c 82 3f 4a 8a 83 3f ab 77 82 3f 90 70 83 3f
       1.0165013 1.0276577 1.019277 1.0268726
0000f0 4a c8 7f 3f 3a 71 88 3f 5c de 84 3f 1c 80 82 3f
       0.9991499 1.0659554 1.0380359 1.0195346
000100 b1 f2 80 3f 89 e6 84 3f 83 a7 82 3f dd f9 86 3f
       1.0074064 1.0382854 1.020737 1.0545002
000110 4d 65 7e 3f 16 51 82 3f ed 3e 7f 3f e9 90 85 3f
       0.9937332 1.0180995 0.9970539 1.0434848
000120 c9 0f 7e 3f cb 66 81 3f 26 03 74 3f 3d a0 7d 3f
       0.99242836 1.0109495 0.95317304 0.9907263
000130 dd 5a 82 3f 97 28 80 3f 21 61 83 3f ea af 81 3f
       1.0183979 1.0012387 1.0264016 1.013181
000140 a1 ee 81 3f bc 6e 7b 3f 7b ea 81 3f b5 e4 81 3f
       1.0150949 0.9821584 1.0149683 1.0147921
000150 18 7a 79 3f c6 a1 7e 3f ef 8b 7b 3f bb 75 84 3f
       0.97451925 0.99465597 0.98260397 1.0348428
000160 99 41 7f 3f 9f 59 82 3f a5 36 84 3f 3b ab 82 3f
       0.9970947 1.01836 1.0329176 1.0208505
000170 24 f3 7a 3f d6 68 77 3f b3 ab 81 3f 36 5c 80 3f
       0.98027253 0.9664434 1.0130523 1.002814
000180 71 b7 7d 3f 3b b2 83 3f b6 88 7b 3f 5e 9d 81 3f
       0.99108034 1.0288767 0.9825548 1.012615
000190 96 9f 84 3f 1d 56 7e 3f e4 90 7e 3f 92 4d 79 3f
       1.0361202 0.9935015 0.99439836 0.9738399
0001a0 f9 15 83 3f 26 d0 81 3f 84 e3 78 3f dd 8b 82 3f
       1.024108 1.0141647 0.9722216 1.0198933
0001b0 7a 11 7b 3f f6 8c 84 3f f5 b1 79 3f 1b 83 7d 3f
       0.9807354 1.0355518 0.97537166 0.99028176
0001c0 b0 de 80 3f 7d f3 7c 3f 3e 2b 7d 3f 3b ac 72 3f
       1.0067959 0.98809034 0.9889411 0.9479405
0001d0 7d 89 7f 3f 52 d2 87 3f cb 1f 84 3f c8 39 7a 3f
       0.99819165 1.061106 1.0322202 0.9774442
0001e0 25 e2 7f 3f 36 3f 81 3f ac ae 80 3f 80 b5 84 3f
       0.99954444 1.0097415 1.0053306 1.036789
0001f0 e2 ef 84 3f 35 98 7e 3f 9f b4 80 3f dd 1b 7b 3f
       1.0385706 0.99451 1.0055121 0.9808939

fc.2.weight f4 [64, 128]
000000 d8 20 dc 3b 5c 25 0b bd f5 ab 09 3c ce 1f 89 3c
       0.0067177825 -0.033971176 0.008402814 0.016738798
000010 c4 93 a5 bc ba 4c b8 39 86 89 09 bd 8d 7b 4f 3c
       -0.020212062 0.0003515238 -0.03357842 0.012663734
000020 df 5d e6 bc 22 ec 0b bd 85 63 fd bc f0 a2 19 bc
       -0.028120933 -0.03416074 -0.030931244 -0.009377226
000030 26 c6 fd bc 6c f2 e0 bc ae ed b8 bb 70 e6 f7 bc
       -0.030978274 -0.027459346 -0.005643568 -0.030261248
000040 47 de 99 3b 88 16 67 bb aa cd ec bb 6c c3 33 bd
       0.004695687 -0.0035261232 -0.0072266655 -0.04388754
000050 ed 10 a5 bc 15 17 7a bc b6 6a d1 bc ba 36 81 bc
       -0.020149672 -0.015264292 -0.025563579 -0.015773166
000060 62 3b 30 3c 5b 9a 12 3c 9e e5 14 3b a0 ed 93 bc
       0.0107563455 0.008947934 0.002271987 -0.018057644
000070 e3 f9 9e 3c 2a f3 3c 3c 9b 00 34 bd 80 fb 00 3d
       0.019406265 0.011532584 -0.04394589 0.03148985
000080 7c 35 07 bd 8e c5 92 bc c3 b0 f7 bb bb 83 19 bd
       -0.03300999 -0.017916467 -0.0075589134 -0.037479144
000090 4a c5 f9 bb a3 3d f6 3b 03 71 4c 3c 7b fc 37 bc
       -0.0076223956 0.007514672 0.012478116 -0.01122963
0000a0 bc 5e c0 bc 8d c9 18 bc f0 77 55 ba 88 ea 2a bc
       -0.023482673 -0.009325397 -0.0008143177 -0.010431893
0000b0 bf 50 d5 bc c1 90 0c bd 5c 41 15 bc 41 43 be bc
       -0.02603948 -0.034317736 -0.009109821 -0.023225429
0000c0 14 f8 e4 3a 65 e6 cd bb b6 49 9e 3b ab 10 15 bd
       0.0017468953 -0.0062835687 0.0048305644 -0.03639285
0000d0 1f 09 1c bd 68 bd 9b bc e4 55 01 bc 15 b1 9e bc
       -0.038094636 -0.019011214 -0.007894013 -0.019371549
0000e0 23 7a 2d 3c a9 31 07 3c cd a9 78 bc 85 2a a8 bc
       0.010588202 0.008251586 -0.015177202 -0.020528087
0000f0 c9 ed ef bb ae 27 9f bc 02 dd cf bc e6 9f eb bb
       -0.0073220474 -0.0194281 -0.02537394 -0.0071906922
000100 29 e4 3b bc 03 e8 0a bc 52 ca a5 bc f0 16 80 bc
       -0.011467972 -0.0084781675 -0.020238075 -0.015635937
000110 54 f5 db ba 08 25 94 bc 33 e5 b9 bc 86 5e 29 3c
       -0.0016781488 -0.018084064 -0.022692299 0.010337478
000120 eb 77 df 3b 40 9b eb bc ca 9c 99 bb d2 7e 84 3c
       0.0068197153 -0.028760552 -0.00468788 0.016173754
000130 86 30 ab bc 7b 14 33 bd 55 5e d9 ba e2 22 78 bc
       -0.020897161 -0.043720704 -0.0016583899 -0.015145035
000140 b5 48 87 3c 48 d6 29 3c 0a db a3 ba ee b6 13 bd
       0.016514162 0.01036603 -0.0012501192 -0.036063127
000150 8f 55 e9 bc 36 b8 24 bc af 2f b8 3c 90 84 c5 bb
       -0.02848318 -0.010053685 0.022483675 -0.0060277656
000160 ab c5 a2 3c 8e 66 d7 bc 81 ac 28 3d 7d 88 02 3c
       0.019869646 -0.02629402 0.041180138 0.007967112
000170 b1 f1 f2 bc f6 90 1f bc af ca 1a 3c 03 1b 15 bd
       -0.029656263 -0.009739151 0.009447738 -0.036402714
000180 49 8d b1 bc 22 70 cf bc 58 d8 ec bc 1d 59 b8 bc
       -0.021673815 -0.025322024 -0.028911754 -0.02250343
000190 07 96 47 bd c8 b0 9a bc 99 3f 06 bc d6 48 31 bc
       -0.04872706 -0.018883124 -0.008193874 -0.010820588
0001a0 d1 e1 82 bc e7 2b 59 bb c3 c2 1e bc cb c5 55 bc
       -0.015976818 -0.003313774 -0.0096899895 -0.013047646
0001b0 ce 02 7d bd d2 f8 8f bc a6 5c 8f bc 91 c0 10 bd
       -0.061770253 -0.017574701 -0.017500233 -0.035339896
0001c0 83 fd 4d bc dc 2a b2 ba b1 df f5 bc 9c 42 04 bd
       -0.012572649 -0.0013593095 -0.030013891 -0.032290086
0001d0 fc da 47 3c 88 9f 6e bd 8f 49 23 bd 1c 73 66 bc
       0.012198206 -0.05825761 -0.039865073 -0.01406553
0001e0 a9 d6 66 bd dd 55 1c bc d6 3f 09 bc ce 15 10 bd
       -0.05635706 -0.009541956 -0.008377036 -0.035177045
0001f0 8e 7e be bc ca 6c a9 bc a4 11 b0 bc 95 0a da bc
       -0.023253705 -0.020681757 -0.021492787 -0.026616374
000200 f6 b8 d4 bc b2 bb e8 bb ee 09 2a bc c6 31 f2 ba
       -0.025967102 -0.007102453 -0.010378344 -0.0018477968
000210 47 a5 1c bc 97 8b ce bb 55 27 ae bc 9d 23 b2 bc
       -0.00956089 -0.0063032615 -0.02125899 -0.021745497
000220 fa 7a 31 3b 4c 06 d3 bc ac 44 d1 3c df fd a0 bc
       0.0027081356 -0.025759839 0.02554544 -0.019652305
000230 d2 e5 fd bc 02 b2 ec bc 2e 58 15 3c 67 18 ad bc
       -0.030993376 -0.028893474 0.009115262 -0.0211298
000240 ce 89 33 bc 3d a5 83 bc 6d b6 52 38 30 89 66 bb
       -0.010958148 -0.016070003 5.02378e-05 -0.0035176985
000250 c1 1c 1d bd b0 62 10 bd 5e 46 03 b9 25 74 4a bc
       -0.0383575 -0.035250366 -0.00012519347 -0.012356793
000260 f1 e4 02 bd 84 ac c9 bc 42 8e 96 3c 60 dd ab bc
       -0.031956617 -0.024618395 0.01837838 -0.020979583
000270 f9 d5 01 bd e5 e7 0d bd ac 32 5f bd 85 72 c8 bc
       -0.0316982 -0.03464498 -0.054491684 -0.02446867
000280 64 83 2f bd 7d 60 b7 bb 6f 12 46 bd 31 02 9c bb
       -0.042849913 -0.005596219 -0.048357423 -0.0047610034
000290 19 45 45 bb 8b b1 6e bc bc 35 ab 3a 0e de 52 3c
       -0.0030101 -0.014568697 0.0013062279 0.012870325
0002a0 66 a6 3f bd b1 7a f8 3b e0 49 a7 3c 72 2c 2d bd
       -0.04678955 0.0075829853 0.020420969 -0.042278714
0002b0 0d a5 6c 3b e8 f6 d7 bc 28 7f ae bc 62 b6 b1 bc
       0.003610912 -0.026362851 -0.021300867 -0.021693412
0002c0 b6 32 93 ba 96 0a c5 bc 62 a3 06 3d fe 7d 1b bd
       -0.0011230323 -0.0240529 0.032870658 -0.037961952
0002d0 6a 19 db 3b 6e 29 ba ba 83 84 e8 38 d6 ce 53 3a
       0.006686379 -0.0014203021 0.00011087304 0.0008079832
0002e0 1b 60 d3 bc 8c a6 14 bc 46 96 ef ba 2c 3a 6b bc
       -0.025802663 -0.009072911 -0.0018279038 -0.014357131
0002f0 22 4e 6e bc de ed 9c bc d5 68 07 bc 16 5e e0 ba
       -0.0145449955 -0.019156393 -0.00826474 -0.0017117884
000300 9d 0c 6d bb f4 2c 42 bd 60 e8 b8 3a f2 24 61 bc
       -0.0036170848 -0.047406152 0.0014107339 -0.013741719
000310 81 96 de bc 71 ec bb 39 91 72 17 bd be 10 39 3c
       -0.027171375 0.00035843582 -0.036974493 0.011295496
000320 ae cf b2 bb 02 4a 5e 3c b2 e3 3e bd 9e a3 df bc
       -0.0054568863 0.0135674495 -0.046603866 -0.027299698
000330 8a cd 33 bd 0b e3 cb bb 4f 2e a7 bc 5b 1e 80 bd
       -0.04389719 -0.006222134 -0.020407824 -0.0625579
000340 8d a0 3a bc 72 73 72 bc 54 fe e7 bc 17 31 36 bd
       -0.011390817 -0.014798032 -0.028319515 -0.04448041
000350 03 70 fb bb dc 73 31 3b 47 fc 13 bd dc 7c 42 bd
       -0.007673265 0.0027077114 -0.036129262 -0.047482356
000360 4d aa 01 bc ab 82 25 bd 73 44 57 3b e0 5d 06 bc
       -0.007914138 -0.040407818 0.0032847195 -0.0082010925
000370 66 04 75 3b 51 91 9e bc f8 23 c5 bb e1 56 3d bc
       0.0037386655 -0.019356402 -0.0060162507 -0.011556358
000380 0f 8d 1e bc 89 b5 2f bb 8f 81 f1 bb b8 4a b0 bb
       -0.009677186 -0.0026811084 -0.007370181 -0.005380001
000390 60 dd 01 bd c4 48 f8 3a 63 76 f6 bc 6f f5 06 bb
       -0.03170526 0.0018942584 -0.030085748 -0.0020593067
0003a0 ba 00 14 3a 1e 13 f9 ba 1f 02 c4 bb 2e ec 18 bd
       0.000564586 -0.001900289 -0.005981698 -0.037334614
0003b0 a3 50 35 bd e5 b2 c3 ba 80 ed 6e bc 16 64 46 3c
       -0.044266354 -0.0014930634 -0.014582992 0.012108823
0003c0 d9 5c 39 3b cf 73 8f bc d8 c6 43 bd 8d dc 5b bd
       0.0028284101 -0.017511277 -0.047797054 -0.05367713
0003d0 ec d8 5c 3c e5 27 e3 bc 09 f3 c6 ba 02 63 bd bc
       0.013479453 -0.027728984 -0.0015178631 -0.0231185
0003e0 d9 a3 3b 3b d4 29 d8 37 7b c8 43 bb dc da 38 bd
       0.0028631596 2.5768684e-05 -0.0029874134 -0.045130596
0003f0 a0 76 bd bc cb 87 ec 3b 30 2f 03 bd 7b 40 bb bc
       -0.023127854 0.007218336 -0.032027423 -0.022857895

fc.2.bias f4 [64]
000000 81 20 7d 3f 85 ad 77 3f 6c 32 80 3f fe f7 80 3f
       0.9887772 0.96749145 1.0015388 1.0075681
000010 0e c3 7a 3f 74 74 81 3f be db 80 3f 5a 6d 7d 3f
       0.9795388 1.0113664 1.006706 0.9899498
000020 42 fe 82 3f 8b 2f 84 3f 95 60 7b 3f d9 6e 7f 3f
       1.0233843 1.0327009 0.9819425 0.99778515
000030 5d 32 7d 3f 18 ae 86 3f ff 40 80 3f 1c 92 7d 3f
       0.98904973 1.0521879 1.0019835 0.9905107
000040 f8 a1 78 3f 34 3a 76 3f 10 27 7a 3f ce ca 7e 3f
       0.97122145 0.9618256 0.97715855 0.99528205
000050 ce d3 7a 3f b3 c5 80 3f 26 80 7a 3f e6 13 75 3f
       0.9797944 1.0060333 0.9785179 0.9573349
000060 d8 53 80 3f ec da 86 3f 13 bc 7c 3f 9e 8c 84 3f
       1.0025587 1.053556 0.9872448 1.0355413
000070 d3 b0 7c 3f f5 d1 79 3f 42 60 79 3f a9 e6 80 3f
       0.9870731 0.97585994 0.974125 1.0070392
000080 4c 9c 81 3f ed b6 7c 3f f5 e0 77 3f 4b 34 78 3f
       1.0125823 0.9871662 0.9682763 0.9695479
000090 2c 2d 83 3f c3 b0 7c 3f 38 09 7f 3f d1 7c 80 3f
       1.024816 0.98707217 0.9962344 1.0038091
0000a0 a4 a2 80 3f 51 c2 81 3f 9a 21 85 3f 25 ba 82 3f
       1.0049634 1.0137426 1.0400879 1.0213057
0000b0 7b 9b 86 3f f8 dc 80 3f bd a2 79 3f 35 a2 81 3f
       1.0516199 1.0067434 0.97513944 1.0127627
0000c0 47 13 78 3f 09 9b 84 3f b0 30 75 3f 6e 34 84 3f
       0.96904415 1.0359813 0.95777416 1.03285
0000d0 92 0f 85 3f df a4 7e 3f 2f 67 7c 3f 07 f3 7a 3f
       1.0395377 0.99470323 0.98594946 0.9802708
0000e0 0d ab 80 3f b0 8e 87 3f 52 bb 80 3f dd db 79 3f
       1.00522 1.059042 1.0057166 0.9760111
0000f0 23 d7 84 3f 39 30 81 3f bc c0 80 3f 96 0c 82 3f
       1.0378155 1.0092841 1.0058818 1.0160091

fc.4.weight f4 [1, 64]
000000 31 19 39 3c 52 d4 9d bb 41 b4 99 3c 68 b7 0b bd
       0.01129751 -0.0048165703 0.01876271 -0.034110457
000010 6e 0a fe ba bb 56 50 bc 51 4e 92 bc 22 59 88 bc
       -0.001938177 -0.012715991 -0.01785961 -0.016644064
000020 31 14 36 bc fe b5 70 bc c9 8c 43 3c 8e ca 20 3c
       -0.011113212 -0.014691828 0.011935421 0.009813918
000030 25 41 40 ba 40 fa 22 bd 6d 2c 91 bc ba ed c5 bc
       -0.0007333926 -0.03978944 -0.01772138 -0.024161208
000040 e0 c4 c5 3b a7 51 b9 3c 11 ab 71 bb ac 11 20 3c
       0.006035432 0.022621943 -0.0036875645 0.009769838
000050 d7 f9 88 ba 86 f5 85 bc 7c b6 85 bc 7b 39 de b8
       -0.0010450435 -0.016352426 -0.016322367 -0.000105964915
000060 f8 45 31 3c f8 cc d7 bc 3a b0 a7 3b c0 d5 c2 bc
       0.0108199045 -0.026342854 0.0051174434 -0.023783565
000070 22 a4 c3 bc 16 63 7e 3a a7 8d d4 bc eb 61 58 bd
       -0.023881976 0.0009704096 -0.025946451 -0.052827757
000080 46 5b d1 3c 69 9d a6 3b 8c fe 95 3c 87 87 a0 3c
       0.025556218 0.0050846827 0.018309854 0.019595874
000090 2f af e4 bc 60 6a 6b bc e1 70 88 3c 46 f0 ad 3b
       -0.027915565 -0.0143686235 0.016655387 0.005308184
0000a0 be 0a 21 ba 33 07 14 bd 37 46 8e bc 0b d4 e6 3c
       -0.00061432633 -0.03613968 -0.017367465 0.028177282
0000b0 5d 03 5e bd 98 b2 5a bb 6f 07 32 bb 06 a2 ed bc
       -0.054202426 -0.003337061 -0.0027165075 -0.029007923
0000c0 55 aa c2 bb e9 27 a5 bd 2d 36 46 3b 95 ee e2 bc
       -0.0059407153 -0.08064253 0.0030244694 -0.027701655
0000d0 bc af 3b bc 88 d4 27 bd 9f ff d6 ba 3c c0 16 bc
       -0.011455473 -0.04097417 -0.0016403085 -0.009201106
0000e0 51 83 9a bc 55 ba e0 bc 35 7c 60 bd fe 4f ed bc
       -0.018861445 -0.0274326 -0.054805953 -0.028968807
0000f0 8c 0f 23 bd 4d 21 30 bd 92 05 8c bc bc d1 52 3c
       -0.03980975 -0.043000508 -0.0170925 0.012867387
