Comparison/Yang1997/models/independent_ppo/ppo_actor.pth (torch, 109144 bytes, 8 tensors)

fc1.weight f4 [64, 18]
-0.02190778 -0.0543093 0.010663872 0.06210315 0.004135873 -0.02540821 -0.022134209 -0.045272715
-0.0106533365 -0.0010822547 -0.035381768 -0.013215153 0.03403762 -0.038190313 -0.0115615055 -0.0100708045
-0.05271001 0.0012777476 0.0010748042 0.008142784 -0.019891832 -0.014048804 0.0011599686 -0.017465852
-0.028015917 0.0035186426 0.011117127 0.03577935 0.010697418 -0.042260252 -0.0012032253 0.005409172
7.2287214e-05 -0.01901077 0.025907291 -0.03824064 0.0023114749 -0.007559538 0.029037945 0.049233582
0.022621227 -0.017012011 -0.011313467 0.011462362 0.031283014 -0.02204346 0.027495695 -0.022644166
-0.035584424 -0.013117865 0.013752405 -0.02276167 -0.026570234 0.010245076 -0.0015763185 0.015953565
-0.033120446 0.0050118607 0.007633422 -0.041214984 -0.006383111 -0.030010719 -0.009818754 0.0041435314
-0.017681735 0.014623624 0.021689791 -0.008027395 0.007902651 0.0043763123 0.043562252 0.0013396769
-0.0030275097 -0.020696916 0.009279632 0.019345583 0.0010716128 -0.0023130372 -0.007729828 -0.0050016968
0.0003345419 -0.00022163379 -0.023651596 0.011934497 0.038837522 -0.016821353 -0.022834081 0.011114844
0.037710357 0.036188737 0.026939968 -0.0034568938 0.017777162 0.04216744 0.0029289268 -0.019458687
-0.02154785 -0.022096578 0.0040816194 -0.019676864 0.028645035 -0.026150454 0.011935525 0.03894324
-0.0010935698 -0.016690623 0.03524713 -0.01145173 0.019006724 -0.019400809 0.0004175853 0.05047025
0.020311777 -0.034524705 -0.050040573 -0.059289668 -0.058818508 -0.040747806 0.01555356 -0.032656487
-0.004931567 -0.028881775 0.020980021 -0.0006870476 0.02165767 -0.037713256 -0.003408576 -0.010654368
-0.0040550334 -0.024038443 -0.021203343 -0.013746585 -0.032394107 -0.014041398 -0.04508621 -0.012558375
0.009138459 -0.014954758 0.02089618 -0.048877534 -0.007096317 0.04098286 0.02522572 0.018142564
-0.018530356 -0.03243259 -0.027721506 0.07372347 0.03293151 -0.03395124 -0.073693104 -0.084185794
-0.06193514 -0.032303866 0.0059652743 -0.039417386 0.016042346 -0.05575373 0.010168311 -0.01840533
0.011159783 -0.025974981 0.010345145 -0.025532493 0.0040452885 0.024866983 0.027833514 -0.047250293
-0.028392091 0.0018013723 -0.063394964 -0.016294153 -0.019860309 -0.066632815 0.05239854 -0.025811443
-0.0075172973 -0.0061415206 0.009971965 0.0015930879 -0.00084592163 -0.013125306 0.026518576 -0.0037474695
0.0036119688 -0.023296522 -0.0068849623 -0.00881718 -0.014211553 -0.010109375 0.005415709 0.023047782
-0.008722732 0.028269386 -0.018781247 -0.027737033 0.0016030113 -0.04956508 0.03671718 -0.023957703
-0.029814174 0.04744384 0.012554571 -0.012614378 -0.039163306 -0.061520644 -0.01012619 -0.035604008
-0.021310676 -0.007716099 0.009759186 -0.05790965 -0.015921788 -0.023238795 -0.0048632957 -0.020624673
-0.021993892 0.009923167 -0.036617856 -0.019869637 0.024135375 0.0005947405 0.023412168 -0.022289187
-0.026776353 -0.022033744 -0.003467718 0.03202297 -0.0017835024 0.0039222855 0.02629232 0.01994324
-0.034446534 0.021160197 -0.019722797 -0.031478945 0.020127375 -0.010605694 0.032905903 0.0021223568
-0.008688461 0.0008650163 -0.015032216 -0.035353947 0.06339322 0.0033016976 -0.017008761 0.016144322
0.015673088 0.013455627 0.03575427 0.039088868 0.0077626863 -0.021858692 -0.03917414 0.055494826
00000000: f277 b3bc 6e73 5ebd 85b7 2e3c df5f 7e3d
00000010: 3886 873b e124 d0bc cd52 b5bc e26f 39bd
00000020: 558b 2ebc 71da 8dba 79ec 10bd 5e84 58bc
00000030: 086b 0b3d 726d 1cbd 786c 3dbc 0400 25bc
00000040: 74e6 57bd 187a a73a 72e0 8c3a 5069 053c
00000050: 32f4 a2bc f42c 66bc 160a 983a 8c14 8fbc
00000060: a381 e5bc 0799 663b 9c24 363c 5e8d 123d
00000070: 3944 2f3c 1619 2dbd 8bb5 9dba 6c3f b13b
00000080: e798 9738 79bc 9bbc 873b d43c 38a2 1cbd
00000090: 1d7c 173b 00b6 f7bb fce0 ed3c 27a9 493d
000000a0: 2750 b93c c65c 8bbc 1f5c 39bc a1cc 3b3c
000000b0: 9e22 003d 7c94 b4bc a73e e13c 4280 b9bc
000000c0: f9c0 11bd 50ec 56bc c451 613c af76 babc
000000d0: d2a9 d9bc f7da 273c 799c ceba 0db1 823c
000000e0: 4ea9 07bd 893a a43b c921 fa3b 0bd1 28bd
000000f0: 6a29 d1bb 0ad9 f5bc d7de 20bc 76c6 873b
00000100: 49d9 90bc ed97 6f3c caae b13c 5685 03bc
00000110: 1f7a 013c 2b67 8f3b 556e 323d 1998 af3a
00000120: 2f69 46bb 948c a9bc 9909 183c a17a 9e3c
00000130: 5c75 8c3a 5396 17bb 7f4a fdbb 46e5 a3bb
00000140: 7465 af39 5e66 68b9 fec0 c1bc e988 433c
00000150: 1814 1f3d efcc 89bc 8a0e bbbc 091b 363c
00000160: 2d76 1a3d a43a 143d 35b1 dc3c 0e8d 62bb
00000170: 69a1 913c c4b7 2c3d 3df3 3f3b d367 9fbc
00000180: 1e85 b0bc e203 b5bc 1bbf 853b 6031 a1bc
00000190: fea8 ea3c 7a39 d6bc 388d 433c f282 1f3d
000001a0: 1d56 8fba c6ba 88bc 4b5f 103d 09a0 3bbc
000001b0: fdb3 9b3c 72ee 9ebc 5aef da39 e5b9 4e3d
000001c0: e264 a63c c769 0dbd 58f7 4cbd b9d9 72bd
000001d0: adeb 70bd 2ce7 26bd 5cd4 7e3c cfc2 05bd
000001e0: fb98 a1bb 7999 ecbc 4bde ab3c fc1a 34ba
000001f0: 6d6b b13c 3779 1abd 6a62 5fbb a98f 2ebc
00000200: 16e0 84bb 45ec c4bc a2b2 adbc 5b39 61bc
00000210: afaf 04bd e40d 66bc 51ac 38bd a4c1 4dbc
00000220: 7ab9 153c cd04 75bc 772e ab3c cf33 48bd
00000230: 3988 e8bb a5dd 273d 2ba6 ce3c b79f 943c
00000240: f9cc 97bc 09d8 04bd 3618 e3bc 55fc 963d
00000250: 31e3 063d 7510 0bbd 69ec 96bd 9a69 acbd
00000260: b4af 7dbd 0f51 04bd 5978 c33b 2074 21bd
00000270: 3d6b 833c 065e 64bd fd98 263c c6c6 96bc
00000280: 86d7 363c 7cc9 d4bc af7e 293c 8529 d1bc
00000290: 578e 843b d8b5 cb3c 1c03 e43c 8689 41bd
000002a0: 8896 e8bc 061c ec3a 38d5 81bd 517b 85bc
000002b0: 16b2 a2bc c976 88bd da9f 563d 8572 d3bc
000002c0: a953 f6bb cf3e c9bb 7461 233c 29cf d03a
000002d0: d7c0 5dba 860b 57bc 7c3d d93c 1b98 75bb
000002e0: c8b6 6c3b 59d8 bebc 409b e1bb ef75 10bc
000002f0: 93d7 68bc cba1 25bc 4376 b13b b4ce bc3c
00000300: cae9 0ebc 3395 e73c 21db 99bc c638 e3bc
00000310: 221c d23a c104 4bbd c164 163d f242 c4bc
00000320: db3c f4bc 7954 423d b0b1 4d3c 89ac 4ebc
00000330: b469 20bd 12fd 7bbd 52e8 25bc 82d5 11bd
00000340: ba93 aebc 54d7 fcbb fee4 1f3c ab32 6dbd
00000350: 696e 82bc 495f bebc 485c 9fbb 13f5 a8bc
00000360: 892c b4bc c794 223c 9bfc 15bd a6c5 a2bc
00000370: 8db7 c53c 5ce8 1b3a e0ca bf3c d097 b6bc
00000380: 155a dbbc 1c80 b4bc a742 63bb 852a 033d
00000390: 69c4 e9ba 8486 803b fe62 d73c 0160 a33c
000003a0: cf17 0dbd 2658 ad3c b491 a1bc 11f0 00bd
000003b0: 2ae2 a43c 81c3 2dbc 57c8 063d 3d17 0b3b
000003c0: 0c5a 0ebc 43c2 623a af49 76bc 4dcf 10bd
000003d0: 4ed4 813d 4b61 583b f555 8bbc 1941 843c
000003e0: d964 803c fd74 5c3c 1273 123d a61b 203d
000003f0: 225e fe3b 0011 b3bc 1075 20bd 8b4e 633d

fc1.bias f4 [64]
1.0052243 0.98550594 1.0240821 1.0142112 1.00212 0.99412215 1.0123615 1.005665
1.0578436 1.0041221 1.0056006 1.0365646 0.9892675 1.0103725 1.0378062 0.97768867
1.0062141 0.99092853 0.9984117 1.017917 0.98898077 1.0337466 0.99103165 0.982515
1.0023214 1.0665474 1.0423219 1.0198416 1.0103614 1.0361944 1.0307856 1.0103543
0.99816257 1.0572884 1.0177814 1.0032648 0.9999127 1.012845 1.0149642 1.0036178
1.0208353 1.0210379 1.0164075 1.0309978 0.99756575 1.0066559 1.0224985 0.98962027
1.0434518 1.0020807 1.0303836 1.0403081 1.0184951 0.9985784 1.0129441 1.0059036
0.967744 1.0334289 0.9606001 1.0128992 0.9942679 1.0310472 1.0155863 1.0366293
00000000: 31ab 803f 1e4a 7c3f 1f15 833f acd1 813f
00000010: 7845 803f ca7e 7e3f 1095 813f a1b9 803f
00000020: 6b67 873f 1387 803f 85b7 803f 26ae 843f
00000030: a340 7d3f e353 813f d5d6 843f ce49 7a3f
00000040: a0cb 803f 7ead 7d3f e997 7f3f 1b4b 823f
00000050: d82d 7d3f cf51 843f 40b4 7d3f 1a86 7b3f
00000060: 114c 803f a084 883f ce6a 853f 2b8a 823f
00000070: 8653 813f 05a2 843f c8f0 833f 4a53 813f
00000080: 9587 7f3f 3a55 873f a946 823f fb6a 803f
00000090: 47fa 7f3f e8a4 813f 59ea 813f 8c76 803f
000000a0: bbaa 823f 5fb1 823f a419 823f bcf7 833f
000000b0: 7860 7f3f 1ada 803f 3be1 823f c157 7d3f
000000c0: d48f 853f 2e44 803f 9ce3 833f d128 853f
000000d0: 0c5e 823f d6a2 7f3f 27a8 813f 73c1 803f
000000e0: 12be 773f 6647 843f e3e9 753f aea6 813f
000000f0: 5788 7e3f 5bf9 833f bbfe 813f 45b0 843f

rnn.weight_ih f4 [192, 64]
0.0643811 0.14090236 -0.03021359 -0.0072119883 0.073383994 -0.048005816 -0.05786409 0.053184092
0.12489861 0.1181771 -0.10213559 0.14069174 0.12379225 -0.10375437 -0.08782292 0.06469808
-0.040114045 0.0029171677 0.08459531 0.02025001 -0.018333474 0.11369814 0.1033393 0.070951976
-0.055848967 0.103932686 -0.07326785 0.12356471 -0.056633815 -0.045952655 0.06400349 -0.0072293277
-0.020454453 -0.05156424 -0.011531471 0.13004552 0.12869813 -0.07594866 -0.043773342 0.13441211
-0.076133184 0.035505824 -0.020251758 0.10855628 0.042618375 -0.037035692 0.14119796 -0.008520638
-0.07674894 0.010492444 0.11872065 0.13584395 -0.051471237 0.12749067 0.07738247 -0.092818335
0.115597196 -0.01650079 0.11956558 0.13244568 0.122031584 0.048614036 -0.058615178 -0.051645022
0.032325536 0.088944905 0.005411372 0.14347231 -0.07201852 -0.07849613 -0.096705355 -0.041837897
0.04605734 0.033258293 -0.0288377 -0.06291496 -0.004857166 -0.008515354 0.045348585 -0.040710486
-0.051904812 0.043719202 0.102054104 -0.025097106 0.06143428 -0.026845936 0.005890121 -0.01192937
-0.07102615 -0.030777132 -0.0058935643 0.016102994 0.1373801 0.09082652 -0.08059523 0.08532977
-0.07132904 -0.053524543 -0.09395843 0.039436366 0.010631094 0.1352971 -0.010510644 0.13455279
0.08224846 0.03877965 0.097859465 0.013818059 -0.022368316 0.046533 0.11455264 0.014944914
0.1262328 0.07246394 -0.00024719437 0.038090326 0.04281137 -0.035655472 -0.073597714 0.038925577
0.13593282 -0.09690851 0.085946426 0.10591446 0.07369817 -0.0030561192 -0.0633532 0.0109330285
-0.027143238 -0.028186029 0.0012494678 0.14315362 0.11411194 0.03687924 0.14398617 -0.06642511
0.06663315 -0.074567266 0.013887364 0.0642461 0.048803102 -0.09017723 0.006622198 0.02939455
0.023092398 0.13496406 0.01857191 0.1315757 0.117790096 0.017140944 -0.090066664 -0.08037967
0.11420411 0.13116147 -0.027213296 0.1211595 0.06897416 0.07103579 -0.03541253 -0.0111475205
0.02239056 0.023446433 0.031489447 0.01169898 0.11672529 -0.042567667 0.08645791 0.07937331
0.08496524 0.018903296 -0.023252554 0.04110616 -0.0009111457 -0.06627319 0.1024865 0.113973916
0.06999065 -0.039970305 0.008858736 -0.07640877 -0.043617643 0.027307203 0.10048008 0.07344557
0.07045847 0.13478084 0.12572679 0.0018208729 0.0029496767 -0.089384474 0.060582235 -0.016248938
0.027835438 0.06570813 0.11876605 0.050684802 0.09275822 0.10173912 0.07698254 0.022277057
-0.060223095 -0.022043683 -0.060311113 -0.07020493 0.056364007 -0.0010213272 0.0854243 0.06258872
0.06734967 0.11496839 0.106883004 -0.041183416 0.11786677 -0.04771244 0.11430379 0.009944874
-0.024742583 -0.06788399 0.050888643 -0.033035405 -0.056825135 0.0046941387 0.06620746 -0.11008503
-0.02326312 -0.06089442 -0.080882676 -0.11135081 -0.11859452 -0.026168719 -0.00076676643 -0.05108981
0.07152555 -0.09115033 0.05719479 -0.095193684 0.018109037 0.12612802 0.08916444 -0.03673615
-0.09195795 0.005438618 -0.10133596 -0.029684726 0.020048965 -0.0746346 -0.0956104 -0.03647867
0.07797934 -0.018090047 0.043600917 -0.0415645 -0.066302046 -0.10640336 -0.037742466 0.10918979
00000000: 3dda 833d b548 103e 7e82 f7bc 8b52 ecbb
00000010: 594a 963d bfa1 44bd e502 6dbd 90d7 593d
00000020: d8ca ff3d d606 f23d 772c d1bd 7f11 103e
00000030: cb86 fd3d 2c7d d4bd 81dc b3bd 6d80 843d
00000040: a04e 24bd f42d 3f3b 4e40 ad3d 59e3 a53c
00000050: 1530 96bc 92da e83d 8ea3 d33d 454f 913d
00000060: e3c1 64bd a9da d43d 740d 96bd 7f0f fd3d
00000070: dcf8 67bd da38 3cbd 4314 833d ffe3 ecbb
00000080: 1990 a7bc 0635 53bd 7fee 3cbc a72a 053e
00000090: 71c9 033e f98a 9bbd ad4b 33bd 54a3 093e
000000a0: b7eb 9bbd 8e6e 113d 04e7 a5bc c152 de3d
000000b0: 9b90 2e3d bdb2 17bd 3396 103e 259a 0bbc
000000c0: 8c2e 9dbd 80e8 2b3c d023 f33d ad1a 0b3e
000000d0: 81d3 52bd ea8c 023e b37a 9e3d 8a17 bebd
000000e0: 39be ec3d aa2c 87bc ccde f43d d79f 073e
000000f0: b2eb f93d 831f 473d 7816 70bd bb89 53bd
00000100: c867 043d bf28 b63d e151 b13b 68ea 123e
00000110: 727e 93bd 94c2 a0bd 750d c6bd 375e 2bbd
00000120: 9fa6 3c3d d939 083d 0a3d ecbc 8fd9 80bd
00000130: dd28 9fbb fc83 0bbc 70bf 393d 0ac0 26bd
00000140: 249a 54bd e812 333d be01 d13d 7298 cdbc
00000150: 83a2 7b3d 02ec dbbc eb01 c13b 6873 43bc
00000160: 2876 91bd 5320 fcbc cd1e c1bb 6dea 833c
00000170: 5ead 0c3e 4103 ba3d 1d0f a5bd 60c1 ae3d
00000180: f614 92bd 8d3c 5bbd 476d c0bd 0788 213d
00000190: 0a2e 2e3c 538b 0a3e d634 2cbc 35c8 093e
000001a0: e171 a83d 69d7 1e3d 8b6a c83d 2465 623c
000001b0: c23d b7bc 6399 3e3d 939a ea3d 83db 743c
000001c0: 2c43 013e f967 943d de99 81b9 9a04 1c3d
000001d0: fa5a 2f3d 790b 12bd 66ba 96bd 6d70 1f3d
000001e0: f931 0b3e f877 c6bd ae04 b03d aee9 d83d
000001f0: 11ef 963d 2c49 48bb 53bf 81bd 7220 333c
00000200: 7f5b debc 63e6 e6bc 2fc5 a33a dd96 123e
00000210: 85b3 e93d b00e 173d 1c71 133e e309 88bd
00000220: f676 883d b9b6 98bd d487 633c 7693 833d
00000230: c3e5 473d d7ae b8bd 06ff d83b d7cc f03c
00000240: 452c bd3c 0534 0a3e 1e24 983c c8bb 063e
00000250: ef3b f13d 2a6b 8c3c df74 b8bd 199e a4bd
00000260: d8e3 e93d 314f 063e 6bee debc 7922 f83d
00000270: 5342 8d3d 367b 913d bb0c 11bd 17a4 36bc
00000280: 686c b73c bc12 c03c 14fb 003d 14ad 3f3c
00000290: ab0d ef3d 6f5b 2ebd d810 b13d 798e a23d
000002a0: 4102 ae3d 16db 9a3c 247c bebc ef5e 283d
000002b0: f4d9 6eba 3dba 87bd 71e4 d13d 286b e93d
000002c0: 4257 8f3d e7b7 23bd 3b24 113c 347c 9cbd
000002d0: 6aa8 32bd 5bb3 df3c 80c8 cd3d a26a 963d
000002e0: 884c 903d fd03 0a3e 86be 003e 5baa ee3a
000002f0: 5d4f 413b 350f b7bd 1425 783d 7e1c 85bc
00000300: 2507 e43c fc91 863d 9d3b f33d de9a 4f3d
00000310: 06f8 bd3d 9a5c d03d 06a9 9d3d 607e b63c
00000320: 7eac 76bd f494 b4bc c908 77bd 9ac7 8fbd
00000330: f2dd 663d 0ede 85ba eff2 ae3d 842e 803d
00000340: a0ee 893d 8c74 eb3d 7ae5 da3d f1af 28bd
00000350: 2264 f13d 1f6e 43bd 1b18 ea3d d3ef 223c
00000360: f5b0 cabc c306 8bbd 9c70 503d 2250 07bd
00000370: 79c1 68bd 4ad1 993b c797 873d 4374 e1bd
00000380: 4c92 bebc 6d6c 79bd d1a5 a5bd e50b e4bd
00000390: afe1 f2bd c85f d6bc d300 49ba 8c43 51bd
000003a0: fd7b 923d 06ad babd 1645 6a3d e8f4 c2bd
000003b0: 6759 943c b427 013e d99b b63d a578 16bd
000003c0: 7354 bcbd 6f36 b23b 3a89 cfbd 622d f3bc
000003d0: ba3d a43c 06da 98bd 63cf c3bd a86a 15bd
000003e0: a2b3 9f3d 9431 94bc e096 323d 8a3f 2abd
000003f0: 5ec9 87bd 01ea d9bd d897 1abd e69e df3d

rnn.weight_hh f4 [192, 64]
0.016275926 -0.14226456 -0.061286196 0.02606735 0.08435531 -0.003437882 0.06042324 -0.107480705
0.15337202 -0.091124706 0.110105604 -0.13437968 -0.105857536 -0.081136934 0.07268959 0.051437348
-0.058004957 0.021290567 0.07546345 0.14887296 0.018854188 0.08484453 0.08903495 0.009625792
0.03136091 0.028075645 0.05998612 0.020449443 0.100852944 -0.09308563 -0.08544184 -0.005735969
-0.12513244 -0.09925402 -0.09255021 0.10692872 0.118848756 0.048985083 -0.073111355 0.07269697
-0.03819266 -0.045330264 0.051638823 0.031314425 -0.054639746 0.1491819 -0.12460774 -0.14122835
0.12763922 -0.013071661 0.061384484 0.07436632 -0.0032681471 0.045310974 0.07219659 0.038276117
0.00311097 0.05949131 -0.12918456 -0.09577597 0.06869286 -0.050633434 -0.078614905 0.09731933
-0.04399308 0.05573758 0.12292235 -0.08511406 -0.033955794 -0.10337475 -0.010186909 -0.14239663
0.100410126 -0.04768444 -0.103110604 -0.110240154 0.04513399 -0.015653508 0.1418609 0.016004942
-0.13027537 0.10498043 0.058637198 0.12281478 -0.0549827 0.01127198 -0.027107142 -0.048688795
0.05860903 0.14352128 0.11268719 0.08898592 0.024143059 -0.09334355 0.023292731 0.09717667
-0.08453521 0.021807788 0.043634973 0.08782115 0.14796591 0.14110848 -0.07264368 -0.12561172
0.03899408 0.031321887 0.113750584 0.078522414 -0.08350421 0.035642635 -0.11576601 -0.04814544
0.113108434 -0.032706868 0.057444144 0.0010924056 -0.11906237 -0.08124248 0.01831249 0.1114223
0.023272367 -0.14778677 -0.13330548 0.014230696 0.03801746 -0.045173086 0.06708342 0.14160967
-0.08830971 0.061382525 -0.02367994 0.027489804 -0.10814941 -0.062442616 -0.054402776 -0.026182383
-0.022285614 -0.026179874 -0.06618215 0.040973406 0.026257996 -0.053401615 -0.088817686 0.008014918
0.04792869 0.013289244 0.14745636 -0.040378217 0.076279946 0.036219187 -0.021263696 -0.038193848
-0.09399619 0.047679245 0.024261935 0.0029429893 0.03998221 0.026954189 -0.0070526553 -0.08434281
-0.10689574 -0.07828455 0.023325084 0.11430764 0.025958093 -0.015037667 0.11863579 0.04392307
0.050141033 -0.067546554 -0.0031527109 -0.09851354 -0.04454044 -0.081688516 0.069699265 0.09121436
-0.07590835 0.019503202 -0.053265978 0.073944926 -0.015980836 -0.065171875 -0.037193343 -0.004471221
-0.040809162 -0.032211483 -0.05703029 -0.06840113 -0.12318112 -0.054929834 0.11809907 0.1452647
0.01847315 0.01691297 0.12268167 -0.08092757 0.036181845 0.10940131 -0.05695718 -0.014677812
-0.098193176 -0.08750214 0.10594609 0.09225749 0.0637759 0.0792545 0.084897466 0.07164833
-0.08472697 -0.05835904 -0.05344447 -0.059492175 0.022299612 -0.035614293 0.129935 0.048267998
0.029748825 0.0442507 0.041602977 0.0043204343 -0.02422745 0.06305362 -0.11047495 0.041853417
0.026457561 -0.08107542 -0.094011106 -0.10507506 0.024914153 0.07413014 0.09580814 0.06369967
-0.099695064 0.055805158 0.04162062 0.055974007 0.039727297 -0.039541475 -0.01673455 -0.036776595
0.096203804 0.071135774 0.037367444 -0.12007332 -0.08639501 -0.007221295 -0.016962556 0.10280428
0.111683644 -0.10736615 -0.035969235 -0.05491063 0.08160976 0.037802562 0.1167286 0.07696038
00000000: 1755 853c cdad 11be 3c07 7bbd 328b d53c
00000010: 7ac2 ac3d 174e 61bb 5c7e 773d d81e dcbd
00000020: 8e0d 1d3e 979f babd 0c7f e13d d49a 09be
00000030: d6cb d8bd 1f2b a6bd 48de 943d f8af 523d
00000040: 9b96 6dbd 8e69 ae3c 958c 9a3d 2772 183e
00000050: 1974 9a3c f8c2 ad3d f557 b63d 7fb5 1d3c
00000060: 4c74 003d e5fe e53c 01b4 753d 9785 a73c
00000070: fd8b ce3d aea3 bebd 22fc aebd ccf4 bbbb
00000080: b822 00be b145 cbbd f78a bdbd 72fd da3d
00000090: fa66 f33d 95a4 483d 68bb 95bd 26e2 943d
000000a0: e86f 1cbd 3aac 39bd 3b83 533d 8e43 003d
000000b0: edcd 5fbd 24c3 183e 5832 ffbd 2a9e 10be
000000c0: dbb3 023e 852a 56bc 4c6e 7b3d 5f4d 983d
000000d0: 692e 56bb 0098 393d cedb 933d 6bc7 1c3d
000000e0: 6ae1 4b3b 29ad 733d f548 04be 3126 c4bd
000000f0: d8ae 8c3d 0165 4fbd da00 a1bd 5b4f c73d
00000100: 1632 34bd 174d 643d b7be fb3d 4850 aebd
00000110: 3b15 0bbd 24b6 d3bd fee6 26bc 6cd0 11be
00000120: d3a3 cd3d c250 43bd a72b d3bd 97c5 e1bd
00000130: 6bde 383d c93b 80bc fc43 113e cc1c 833c
00000140: e866 05be fbff d63d 8f2d 703d 5186 fb3d
00000150: 8a35 61bd 1cae 383c cc0f debc e76d 47bd
00000160: 0610 703d 3ef7 123e 8bc8 e63d 403e b63d
00000170: aac7 c53c e72a bfbd 66d0 be3c 9004 c73d
00000180: cc20 adbd 3fa6 b23c 96ba 323d 93db b33d
00000190: 6084 173e be7e 103e 36c6 94bd 5ca0 00be
000001a0: 42b8 1f3d 614b 003d 11f6 e83d 5cd0 a03d
000001b0: 4104 abbd 03fe 113d bb16 edbd 2734 45bd
000001c0: 65a5 e73d a3f7 05bd 8d4a 6b3d 0d2f 8f3a
000001d0: f9d6 f3bd 7562 a6bd 1304 963c 6031 e43d
000001e0: b1a5 be3c 6a55 17be 3b81 08be dd27 693c
000001f0: 32b8 1b3d 6a07 39bd 0863 893d 2002 113e
00000200: b9db b4bd 3e6c 7b3d 6ffc c1bc 4c32 e13c
00000210: 707d ddbd d4c3 7fbd 72d5 5ebd 707c d6bc
00000220: 5290 b6bc 2d77 d6bc 828a 87bd bbd3 273d
00000230: 021b d73c a7bb 5abd 0ce6 b5bd 0151 033c
00000240: e050 443d 21bb 593c cdfe 163e a163 25bd
00000250: a938 9c3d 925a 143d 3431 aebc 2771 1cbd
00000260: 1381 c0bd 504b 433d f7c0 c63c 2bdf 403b
00000270: 63c4 233d 08cf dc3c f619 e7bb ecbb acbd
00000280: 27ec dabd a653 a0bd 3f14 bf3c 201a ea3d
00000290: 11a6 d43c 8c60 76bc 52f7 f23d ade8 333d
000002a0: af60 4d3d d955 8abd b69d 4ebb 78c1 c9bd
000002b0: 0970 36bd 4f4c a7bd 7dbe 8e3d 98ce ba3d
000002c0: d675 9bbd 2ec5 9f3c 6d2d 5abd 7070 973d
000002d0: 3eea 82bc d578 85bd 0c58 18bd 5283 92bb
000002e0: 8227 27bd 30f0 03bd 9898 69bd e415 8cbd
000002f0: 6246 fcbd 1bfe 60bd eddd f13d 45c0 143e
00000300: 0155 973c 128d 8a3c 8740 fb3d 5bbd a5bd
00000310: 6a33 143d cb0d e03d ef4b 69bd 357b 70bc
00000320: 8119 c9bd 5234 b3bd 43fa d83d 7ff1 bc3d
00000330: f09c 823d 2f50 a23d b9de ad3d 5cbc 923d
00000340: 5585 adbd e409 6fbd 97e8 5abd 11ae 73bd
00000350: adad b63c 4be0 11bd ae0d 053e aab4 453d
00000360: cfb3 f33c 3940 353d e267 2a3d 6e92 8d3b
00000370: a578 c6bc 4222 813d b140 e2bd 7d6e 2b3d
00000380: 87bd d83c df0a a6bd e588 c0bd 9831 d7bd
00000390: c418 cc3c 8bd1 973d 0f37 c43d f974 823d
000003a0: ed2c ccbd f393 643d 627a 2a3d 0045 653d
000003b0: 17b9 223d 3ef6 21bd e516 89bc 0ea3 16bd
000003c0: 8006 c53d a2af 913d 9b0e 193d 00e9 f5bd
000003d0: deef b0bd 9da0 ecbb 0ff5 8abc 0d8b d23d
000003e0: 65ba e43d c9e2 dbbd 7a54 13bd f8e9 60bd
000003f0: 0523 a73d dcd6 1a3d 670f ef3d 679d 9d3d

rnn.bias_ih f4 [192]
-0.063073605 0.109276354 0.0194886 0.11003462 0.06909467 0.04570101 -0.020286039 0.03472233
-0.0013161442 -0.042253446 0.065156244 0.13605478 0.045878977 0.088136435 0.11748015 0.10982671
-0.030965613 -0.026630722 0.063136734 -0.06977209 0.05084759 -0.089775644 0.12422721 -0.0602266
-0.10111238 0.13090532 -0.06337946 0.12880856 -0.052873954 0.08029314 -0.08091763 -0.08694566
-0.020134171 -0.009696751 -0.05651924 0.11006659 0.05673231 0.12915011 -0.04242789 -0.08606392
0.006543435 0.1066754 -0.10432455 -0.027042603 -0.004854074 0.04021938 0.045400392 0.036650743
0.061263576 0.029557971 0.03850554 -0.01645261 0.085526966 0.09718093 0.01944709 0.026978524
-0.01346591 -0.0037302591 0.09758173 0.039997548 -0.023022082 -0.047101304 -0.08247287 -0.054356422
0.09814352 0.10466206 -0.08296254 0.07597709 0.10289254 -0.1246371 -0.051460825 0.020666588
0.08949739 0.08813635 -0.018145433 -0.14301412 -0.056304052 -0.073512256 -0.015036506 0.08911648
0.04639975 -0.014294341 0.09900393 -0.07781637 -0.09569358 -0.1268084 -0.110375345 -0.091835395
-0.021916008 -0.08985684 -0.09096788 0.0073899394 0.037914556 0.061236694 0.0009510101 -0.14875531
-0.09331798 -0.009978077 0.049573243 -0.038119793 0.06080904 0.012644377 0.007872703 -0.008540923
-0.007014161 -0.001574496 0.081155434 -0.019935567 -0.07035354 -0.13934362 0.060574204 0.101637475
-0.055887703 -0.031588983 -0.109779626 0.10555048 -0.07450043 -0.0040633115 0.036361005 -0.08590951
0.074324004 0.07990682 -0.08880277 0.09713847 0.11004855 0.06814455 0.029912483 0.09732004
-0.06497129 0.02211353 0.12135526 -0.10525592 -0.043978654 0.077220134 -0.09360893 -0.06651275
-0.10719046 -0.023337733 -0.040964957 0.066519916 -0.03046434 0.12784117 0.13384692 0.044756852
0.020430943 -0.09830888 -0.013715983 0.047138583 0.087546125 -0.028446892 0.013129653 -0.0057491525
0.09169637 -0.047434136 -0.10874021 0.06644226 0.12107884 0.016712112 -0.008523324 -0.099311404
0.1017886 -0.039572187 0.002571874 0.10455643 0.037168752 0.11426854 0.054395825 -0.058859684
-0.063921064 0.018900897 -0.07730178 -0.09803536 0.008041349 0.08677296 0.041082174 0.07324309
0.10042063 -0.004976909 0.09363925 0.090397745 0.06058305 -0.077664435 0.005081757 0.03172161
-0.03711819 0.09101044 0.038429145 -0.014681403 0.036083926 0.13885099 -0.007340665 0.12089237
00000000: bc2c 81bd 48cc df3d 8ea6 9f3c d559 e13d
00000010: 8281 8d3d fb30 3b3d e82e a6bc 0039 0e3d
00000020: 7982 acba f311 2dbd a370 853d f251 0b3e
00000030: 98eb 3b3d e080 b43d 6f99 f03d d3ec e03d
00000040: 99ab fdbc ac28 dabc d54d 813d abe4 8ebd
00000050: 9045 503d 4bdc b7bd d66a fe3d 2bb0 76bd
00000060: 0214 cfbd 0b0c 063e 17cd 81bd 64e6 033e
00000070: 5c92 58bd bb70 a43d 24b8 a5bd 9110 b2bd
00000080: 6bf0 a4bc 1fdf 1ebc b880 67bd 986a e13d
00000090: 2460 683d ed3f 043e dec8 2dbd 4842 b0bd
000000a0: 506a d63b a278 da3d 1ca8 d5bd 7388 ddbc
000000b0: ed0e 9fbb 14bd 243d c3f5 393d 171f 163d
000000c0: 84ef 7a3d 8f23 f23c fcb7 1d3d a0c7 86bc
000000d0: c328 af3d cc06 c73d 814f 9f3c 1102 dd3c
000000e0: 1fa0 5cbc 5d77 74bb eed8 c73d 78d4 233d
000000f0: ce98 bcbc 4ced 40bd 89e7 a8bd d7a4 5ebd
00000100: 78ff c83d 1059 d63d 44e8 a9bd e099 9b3d
00000110: 53b9 d23d bc41 ffbd 96c8 52bd fa4c a93c
00000120: 684a b73d d580 b43d bba5 94bc 4b72 12be
00000130: 149f 66bd 988d 96bd ad5b 76bc b382 b63d
00000140: aa0d 3e3d d032 6abc 93c2 ca3d 305e 9fbd
00000150: fffa c3bd 10da 01be 780c e2bd 3214 bcbd
00000160: 3389 b3bc dd06 b8bd 5e4d babd 4e27 f23b
00000170: 4b4c 1b3d 54d3 7a3d 354d 793a 5053 18be
00000180: 7f1d bfbd 177b 23bc 500d 4b3d 8023 1cbd
00000190: e612 793d 5c2a 4f3c 82fc 003c 3aef 0bbc
000001a0: 0cd7 e5bb 525f ceba d234 a63d ea4f a3bc
000001b0: 8415 90bd 18b0 0ebe a81c 783d 4f27 d03d
000001c0: 81ea 64bd 7363 01bd 24d4 e0bd da2a d83d
000001d0: ae93 98bd 8725 85bb 47ef 143d 53f1 afbd
000001e0: 2f37 983d 30a6 a33d 3ade b5bd 89f0 c63d
000001f0: 2261 e13d 5f8f 8b3d 060b f53c bb4f c73d
00000200: ab0f 85bd 6f27 b53c 1b89 f83d 6a90 d7bd
00000210: f622 34bd 9725 9e3d 0ab6 bfbd d637 88bd
00000220: ac86 dbbd c62e bfbc dfca 27bd 983b 883d
00000230: 5a90 f9bc cce8 023e 2b0f 093e f652 373d
00000240: cb5e a73c 2b56 c9bd 01b9 60bc 6314 413d
00000250: 624b b33d 7509 e9bc c21d 573c 6363 bcbb
00000260: 4ecb bb3d 4c4a 42bd 30b3 debd e112 883d
00000270: 2ff8 f73d d7e7 883c 69a5 0bbc c763 cbbd
00000280: 8b76 d03d 7216 22bd e38c 283b ae21 d63d
00000290: 433e 183d a005 ea3d 28ce 5e3d da16 71bd
000002a0: 0ce9 82bd 0ed6 9a3c 6550 9ebd c3c6 c8bd
000002b0: ddbf 033c 06b6 b13d c845 283d 7900 963d
000002c0: 55a9 cd3d 5715 a3bb efc5 bf3d 7422 b93d
000002d0: ef25 783d 880e 9fbd de84 a63b 85ee 013d
000002e0: 3e09 18bd ae63 ba3d e167 1d3d 448a 70bc
000002f0: bdcc 133d f42e 0e3e f689 f0bb 6b96 f73d

rnn.bias_hh f4 [192]
-0.08638084 -0.018069992 0.09667294 -0.04170444 0.1306436 -0.04604738 -0.067338616 0.0320333
-0.03212792 -0.09994582 0.038148575 -0.062996626 -0.07739621 0.14186282 0.12832539 -0.10157772
0.095512144 0.110065065 0.09079223 -0.04488832 0.012461111 0.12246794 -0.07259114 -0.02700946
0.1146719 0.06351573 -0.01699503 0.051978078 0.04335073 -0.11182647 -0.06554085 0.04708915
0.050443105 0.07163567 0.11916408 0.017884646 0.016389797 0.076783314 0.12965156 -0.0017190631
0.09003209 -0.09074159 -0.02058445 0.118297845 0.06695469 -0.04319372 0.057444904 0.12987362
0.0729246 0.12595288 -0.010998302 0.11329345 0.094624154 -0.032472957 0.07787726 -0.078722365
0.07375747 -0.08745065 0.08209154 0.10824679 -0.07838366 -0.06834882 0.11079999 0.14984186
-0.038477384 0.016559118 -0.071703985 0.044165306 -0.067272276 0.045331165 -0.06563775 -0.051505838
-0.03664657 0.028820708 -0.0047830394 0.056244086 -0.10087778 0.08167389 0.039059054 0.047738325
-0.040853925 -0.07383755 0.09390732 -0.072574615 -0.09562231 0.065726005 0.0051996782 -0.0032878318
-0.097410895 0.08964305 0.056248087 0.02214732 0.020678597 0.035194352 -0.010494019 -0.029832402
0.039671008 0.0044547184 0.08798303 0.030055108 0.026451098 -0.003282743 0.083810225 0.094919495
-0.019282574 0.017179502 0.021507686 0.041223858 0.0043398 -0.09828179 -0.04226944 -0.12380879
-0.032079022 -0.11389741 0.046532504 0.06844297 0.04951731 0.08335776 -0.06429551 -0.06678087
-0.016850397 0.042087343 -0.11422178 -0.07553884 -0.09784508 -0.13084875 0.026844962 0.104991056
0.102066845 -0.027994288 -0.018483672 0.06909083 0.015701395 -0.075597905 0.018751733 -0.013216739
-0.055242766 0.04223837 -0.059290797 -0.1031162 0.020650057 0.09088122 0.13916004 -0.06851217
0.07880587 -0.006876428 -0.03291542 0.036388416 -0.08776888 -0.047733966 -0.093775846 0.03985867
-0.12143908 0.12472714 -0.0052253883 0.076798916 -0.0026199957 -0.032956947 0.09633473 -0.016068364
-0.0031260278 -0.088516176 -0.04258093 -0.00020744881 0.12541725 -0.016061569 0.07392067 0.039597344
0.08414873 -0.10229147 -0.10126066 0.08672685 0.08799247 -0.01987726 0.054629028 -0.054901667
-0.067976125 -0.0595639 -0.11434694 0.0862824 -0.13481937 0.123518854 -0.06585675 -0.061516587
-0.07354587 0.10852251 -0.09748296 0.018664682 0.026476707 0.042338934 -0.101669565 0.08181957
00000000: 70e8 b0bd 8507 94bc 76fc c53d 46d2 2abd
00000010: 70c7 053e 2d9c 3cbd d4e8 89bd 5935 033d
00000020: 9198 03bd 65b0 ccbd ae41 1c3d 6004 81bd
00000030: e781 9ebd 7d44 113e bb67 033e fb07 d0bd
00000040: df9b c33d cb69 e13d 47f1 b93d d1dc 37bd
00000050: b029 4c3c 79d0 fa3d aaaa 94bd f142 ddbc
00000060: 1ad9 ea3d 8914 823d 2939 8bbc f7e6 543d
00000070: 8990 313d 4705 e5bd 483a 86bd 8de0 403d
00000080: 6e9d 4e3d b9b5 923d 4c0c f43d d282 923c
00000090: e543 863c 9240 9d3d 61c3 043e 3052 e1ba
000000a0: bf62 b83d bad6 b9bd b8a0 a8bc 2446 f23d
000000b0: 8a1f 893d e6eb 30bd 594b 6b3d 97fd 043e
000000c0: 7e59 953d cbf9 003e 3932 34bc 6506 e83d
000000d0: 4fca c13d 5d02 05bd 1d7e 9f3d 3139 a1bd
000000e0: 280e 973d 5419 b3bd 9c1f a83d 7eb0 dd3d
000000f0: 9d87 a0bd 77fa 8bbd 1beb e23d 2570 193e
00000100: 769a 1dbd fda6 873c 8ad9 92bd aee6 343d
00000110: 0cc6 89bd 2cad 393d 166d 86bd c9f7 52bd
00000120: b71a 16bd 6819 ec3c 0bbb 9cbb 3360 663d
00000130: 0299 cebd a444 a73d 63fc 1f3d 4389 433d
00000140: 7256 27bd 2438 97bd 7b52 c03d 00a2 94bd
00000150: a1d5 c3bd 5b9b 863d 1062 aa3b aa78 57bb
00000160: 5d7f c7bd c796 b73d 6564 663d 4c6e b53c
00000170: 2966 a93c f427 103d 1bef 2bbc 1563 f4bc
00000180: 117e 223d e3f8 913b 7230 b43d 2136 f63c
00000190: f9af d83c 4a23 57bb b2a4 ab3d 2765 c23d
000001a0: 7df6 9dbc 07bc 8c3c e330 b03c 59da 283d
000001b0: e234 8e3b f747 c9bd b822 2dbd 778f fdbd
000001c0: 4b65 03bd 0c43 e9bd de98 3e3d d42b 8c3d
000001d0: aad2 4a3d 79b7 aa3d 5dad 83bd 69c4 88bd
000001e0: d809 8abc c763 2c3d 1ced e9bd 1bb4 9abd
000001f0: 0063 c8bd 37fd 05be f7e9 db3c 8d05 d73d
00000200: 6c08 d13d 4754 e5bc 126b 97bc 7e7f 8d3d
00000210: 36a0 803c 13d3 9abd 3c9d 993c 058b 58bc
00000220: 3d46 62bd 2402 2d3d e8da 72bd 962e d3bd
00000230: 4f2a a93c ef1f ba3d f87f 0e3e 1c50 8cbd
00000240: f964 a13d a953 e1bb 52d2 06bd 050c 153d
00000250: 2cc0 b3bd b184 43bd 8d0d c0bd d842 233d
00000260: 0db5 f8bd f170 ff3d bc39 abbb c048 9d3d
00000270: 3cb4 2bbb ddfd 06bd 254b c53d cda1 83bc
00000280: 0bde 4cbb f847 b5bd 5769 2ebd 9e86 59b9
00000290: 616d 003e 8d93 83bc b863 973d d330 223d
000002a0: 2b56 ac3d 317e d1bd c061 cfbd d99d b13d
000002b0: 6535 b43d a3d5 a2bc b0c2 5f3d 92e0 60bd
000002c0: 1137 8bbd 47f9 73bd ba2e eabd d4b4 b03d
000002d0: 170e 0abe 74f7 fc3d e7df 86bd d1f8 7bbd
000002e0: 389f 96bd 0d41 de3d 25a5 c7bd ade6 983c
000002f0: aee5 d83c 976b 2d3d 2238 d0bd 0591 a73d

fc2.weight f4 [5, 64]
-0.047772072 0.036727708 0.033161733 -0.015162795 -0.015180207 0.019524707 0.033779074 -0.009382976
-0.003892173 0.01596939 -0.0110346 0.034808703 0.028372915 -0.04612913 -0.0025521992 0.024590377
0.015991103 -0.024358444 0.0012974158 -0.00094586064 0.03327585 -0.015387054 0.029060438 -0.020909593
0.014128539 0.0032723316 -0.019085243 -0.02637757 0.004238632 -0.016419293 0.013100422 0.018874737
0.012444548 0.020224342 0.014874168 -0.026325116 -0.021609254 -0.02687468 -0.034254663 -0.0045122625
-0.028926928 0.004719861 0.005111426 0.0029377935 -0.0025578705 -0.009633793 0.014677449 -0.012029358
0.01743993 0.012978436 0.013221309 0.0025348302 0.0018894589 0.01723475 -0.00094442675 -0.007415485
0.032302164 -0.009216546 -0.0038375692 0.01959845 0.024871036 0.030551683 -0.0131197395 -0.023846397
-0.032016627 0.03000359 -0.0224243 0.008942506 0.026424909 0.0368918 0.015610229 0.018459324
-0.04752064 -0.021837806 -0.057092197 0.04183551 0.00051760295 -0.036635324 -0.00821868 0.028231185
0.021520087 -0.012046228 -0.05030924 0.012430314 -0.022455323 0.027189258 0.064323775 0.028520696
0.05192472 -0.015976613 -0.030454138 -0.009888763 -0.039759938 0.0050184135 0.059125558 0.06515162
0.01794962 0.002509327 0.022444798 -0.048169464 -0.030749306 -0.0024024916 -0.029136736 0.029232366
-0.058461815 0.0153606 -0.0042019584 0.00030779873 0.029103227 -0.017727233 0.027745837 -0.0037042543
-0.05364081 -0.009566186 0.017700404 -0.02303307 0.047123216 -0.020264218 0.045621738 -0.023999503
-0.019602684 0.03065726 0.018021716 -0.025740827 0.023807831 -0.023312502 -0.053345077 -0.02780004
-0.05034241 0.04289491 -0.05769994 -0.026173105 0.082514465 0.10456214 0.071263626 0.052875895
-0.052441288 -0.061312407 -0.08130015 0.047082316 0.03810907 -0.046827424 -0.034797985 0.0320152
0.07200137 -0.01899694 -0.031828772 -0.04951668 -0.036382426 0.0695249 0.033705045 0.055485502
0.051116817 -0.046511807 -0.060301494 -0.08311639 -0.050264597 -0.051404614 0.04452943 0.037959315
0.040498838 0.0555819 0.049569882 -0.08016427 -0.045844913 -0.06953084 -0.08512485 0.018886508
-0.074613474 0.057615347 -0.03406418 0.04320804 0.048383668 -0.021172523 0.04287117 0.04543871
-0.0751265 -0.048429828 0.020719852 0.03434354 0.08269791 -0.07795419 0.025499837 -0.03297086
-0.050122943 0.018950045 0.04840811 -0.05973924 0.021551551 -0.08067669 -0.0225767 -0.07366698
-0.00704104 0.00823058 0.0017425767 0.015072744 0.023226928 -0.018226577 -0.022064105 -0.012681591
-0.012520937 0.021832058 -0.03228202 0.01265583 0.0040963837 -0.016552744 -0.015352951 0.02368385
0.020352012 0.004276238 0.0028138196 -0.0020462447 -0.0039256965 0.025067296 0.028650295 -0.013557285
0.008072786 0.0008549216 -0.02647284 -0.004206225 0.024063103 0.0037445251 0.045942828 -0.0030009018
-0.010480397 0.0058642356 0.018638821 0.014750532 -0.0035201109 0.02186938 -0.0066811456 -0.0010446876
-0.03752353 0.025951443 0.0023145888 -0.031517927 0.0027531344 -0.016194278 0.009031196 0.003746825
-0.0035640919 0.0040464443 0.04289312 0.024417588 -0.008750165 0.01385056 -0.011484378 0.005080394
0.00034985432 0.026314517 0.054911032 -0.002387667 -0.017821988 -0.0132049 0.015523592 -0.015980996
00000000: a6ac 43bd cb6f 163d 99d4 073d 5f6d 78bc
00000010: 67b6 78bc 47f2 9f3c ed5b 0a3d 0ebb 19bc
00000020: d413 7fbb 3dd2 823c 78ca 34bc 9293 0e3d
00000030: 516e e83c e6f1 3cbd cc42 27bb c271 c93c
00000040: c6ff 823c 5c8b c7bc 0d0e aa3a a2f3 77ba
00000050: 424c 083d fb19 7cbc 2810 ee3c 984a abbc
00000060: 637b 673c 9d74 563b a858 9cbc c615 d8bc
00000070: 39e4 8a3b c181 86bc 27a3 563c 319f 9a3c
00000080: 38e4 4b3c 85ad a53c c8b2 733c c5a7 d7bc
00000090: e405 b1bc 4a28 dcbc 9e4e 0cbd 9adb 93bb
000000a0: 2af8 ecbc 10a9 9a3b c07d a73b ff87 403b
000000b0: f2a1 27bb 0ed7 1dbc af79 703c c916 45bc
000000c0: 2fde 8e3c 82a3 543c 309e 583c 651f 263b
000000d0: b8a7 f73a e42f 8d3c 6893 77ba 99fd f2bb
000000e0: 464f 043d ff00 17bc ba7f 7bbb ee8c a03c
000000f0: 58be cb3c 8647 fa3c 2df4 56bc 8559 c3bc
00000100: de23 03bd 17ca f53c 2ab3 b7bc 9783 123c
00000110: 0d79 d83c db1b 173d 0cc2 7f3c 0238 973c
00000120: 01a5 42bd 33e5 b2bc 82d9 69bd b65b 2b3d
00000130: bfaf 073a ec0e 16bd a4a7 06bc 1645 e73c
00000140: e54a b03c 8b5d 45bc 1011 4ebd 84a8 4b3c
00000150: 3af4 b7bc 02bc de3c 2fbc 833d 3ca4 e93c
00000160: 04af 543d 63e1 82bc f57a f9bc 7a04 22bc
00000170: 51db 22bd 8171 a43b a42d 723d 366e 853d
00000180: 150b 933c 8573 243b 27de b73c 584d 45bd
00000190: f8e5 fbbc 1f73 1dbb 2ab0 eebc b778 ef3c
000001a0: a875 6fbd 07ab 7b3c 95b0 89bb 0c60 a139
000001b0: e469 ee3c b438 91bc 3d4b e33c 13c3 72bb
000001c0: 77b6 5bbd 7ebb 1cbc 7000 913c d9af bcbc
000001d0: 4604 413d 2501 a6bc dcdd 3a3d 9b9a c4bc
000001e0: cf95 a0bc ef24 fb3c 47a2 933c 6dde d2bc
000001f0: a408 c33c dcf9 bebc 5e80 5abd e9bc e3bc
00000200: d833 4ebd 93b2 2f3d c656 6cbd fb68 d6bc
00000210: 58fd a83d ad24 d63d aaf2 913d 6594 583d
00000220: adcc 56bd b822 7bbd b180 a6bd 63d9 403d
00000230: 4218 1c3d 1dce 3fbd 5588 0ebd 5f22 033d
00000240: 7475 933d 799f 9bbc e35e 02bd 01d2 4abd
00000250: bd05 15bd 1263 8e3d 4d0e 0a3d c444 633d
00000260: de5f 513d 2a83 3ebd b3fe 76bd ed38 aabd
00000270: 40e2 4dbd a58d 52bd 7e64 363d 3a7b 1b3d
00000280: 1ce2 253d d9a9 633d ca09 4b3d 2a2d a4bd
00000290: e0c7 3bbd 2f66 8ebd f055 aebd e1b7 9a3c
000002a0: f3ce 98bd 12fe 6b3d e286 0bbd eafa 303d
000002b0: f42d 463d 0072 adbc ae99 2f3d f11d 3a3d
000002c0: ecdb 99bd 5b5e 46bd aebc a93c d0ab 0c3d
000002d0: 865d a93d 72a6 9fbd 09e5 d03c 740c 07bd
000002e0: b74d 4dbd 203d 9b3c 9547 463d 22b1 74bd
000002f0: e18c b03c d239 a5bd c6f2 b8bc b7de 96bd
00000300: 86b8 e6bb 8ed9 063c 2c67 e43a acf3 763c
00000310: 6646 be3c e74f 95bc c8bf b4bc 73c6 4fbc
00000320: 9e24 4dbc 25d9 b23c 273a 04bd 665a 4f3c
00000330: f53a 863b 9f99 87bc f28a 7bbc a204 c23c
00000340: 43b9 a63c af1f 8c3b 0f68 383b 4a1a 06bb
00000350: 21a3 80bb ee59 cd3c 06b4 ea3c 601f 5ebc
00000360: b843 043c d11c 603a 92dd d8bc 5fd4 89bb
00000370: fc1f c53c b566 753b 8c2e 3c3d c7aa 44bb
00000380: f9b5 2bbc c628 c03b 71b0 983c 37ac 713c
00000390: a9b1 66bb 6a27 b33c 83ed dabb e6ed 88ba
000003a0: 46b2 19bd 1f98 d43c 5bb0 173b f118 01bd
000003b0: ee6d 343b dda9 84bc 95f7 133c 4b8d 753b
000003c0: 8a93 69bb 0998 843b b2b0 2f3d 6507 c83c
000003d0: da5c 0fbc 76ed 623c f928 3cbc 6f79 a63b
000003e0: a76c b739 8b91 d73c 64ea 603d 687a 1cbb
000003f0: 6bff 91bc 5d59 58bc aa56 7e3c 94ea 82bc

fc2.bias f4 [5]
0.99603254 0.96997786 0.9625328 0.9886808 0.9640337
00000000: fdfb 7e3f 7850 783f 8d68 763f 2f1a 7d3f
00000010: eaca 763f
